models/checkpoints/current_model.pt (torch, 14734 bytes, 27 tensors)

encoder.block1.0.weight f4 [4, 1, 2, 2]
00000000: 8b8f 85be 824d 92bd 5e46 a3be 5561 c43d
00000010: ff4e 86be 7ca6 be3e 138a cfbe 9e57 03bf
00000020: 386d 92be 4023 873e c275 3bbe 0bf3 3f3e
00000030: 6a14 8bbe 2b98 9fbe df34 82be 8f67 70be
-0.26086077 -0.0714369 -0.31889623 0.09588877 -0.26232144 0.37236392 -0.4053503 -0.5130557
-0.28598952 0.2639408 -0.1830664 0.18745057 -0.27164012 -0.31170782 -0.25430962 -0.23477004

encoder.block1.0.bias f4 [4]
00000000: 772d c0be cb0c a33e 94f5 bcbd 3c48 0c3e
-0.37534687 0.31845698 -0.09226528 0.1369943

encoder.block1.1.weight f4 [4]
00000000: fee7 803f 5652 803f 75bb 883f 0e06 743f
1.0070798 1.0025127 1.0682207 0.9532174

encoder.block1.1.bias f4 [4]
00000000: 8052 05be 37f7 efbd d28e 2e3d 9859 dcbd
-0.13019753 -0.11717074 0.042616673 -0.10759276

encoder.block1.1.running_mean f4 [4]
00000000: 30d3 c3be ec34 9d3e 40cd bebd bf80 fa3d
-0.3824706 0.3070444 -0.09316492 0.122315876

encoder.block1.1.running_var f4 [4]
00000000: 5f41 7e3d 8d78 123e 5d34 0f3c d7a4 613e
0.06207406 0.14303799 0.008740512 0.22035538

encoder.block2.0.weight f4 [8, 4, 2, 2]
00000000: 16a1 bf3d 420a 743d 5de1 173d c5d8 9a3e
00000010: 2d05 f5bd b67b 123e fdff b2bd d097 7d3e
00000020: acde 0c3e ac22 86be 2767 1b3e d790 aa3c
00000030: 3aca 933d 9a8f 113e e19c 833e 26c1 163d
00000040: 013b 1dbe a7e0 cdbd 3481 d9bd 1f6d 26bd
00000050: f49d 0dbd 3e0e 10be a27b a23d f0f0 b03e
00000060: 53cd ccbc cfe8 42bd dfe8 96bd 5d54 8dbd
00000070: 6626 2f3e 6111 7b3d 04c0 133e 6d7e 7e3d
00000080: 2246 013e 2c72 1c3e 28fb 963c 0d74 50be
00000090: ba71 f4bd 716b 633e e15c ffbc 8b3e 58be
000000a0: 2ca5 223e 2af0 7b3e 2791 c3bd fdc7 09be
000000b0: 5460 f9bc f9c4 9f3d 6544 86bd 5d98 54bd
000000c0: 1f1b 63be 5b8b 073e 24f3 823e 8d78 583e
000000d0: 1551 09be a817 07be 6d3d 2e3e 37f0 a83d
000000e0: d77e c63b d2cf 93be ef45 f1bd 454a 5a3d
000000f0: 85d8 dd3d 12c3 303d d46f c13d 10fc 623d
00000100: fc6b 21be 21e7 24be b6f8 8ebd 7b88 7f3e
00000110: d24b 043e 1480 d73d 9c63 edbd efab 943e
00000120: 7b48 1ebc 455a b93d 862c 2dbe 7bc1 0fbd
00000130: 15b6 103e c0b4 cc3d 5b65 963e f650 063d
00000140: 3087 133e 42f1 06be b678 8b3d a358 96bd
00000150: 524a 23bd ded5 0d3a a62b a33d 14f1 9b3e
00000160: 42a2 733d 2758 72bc 0552 e43d 3df2 0ebe
00000170: 21f1 143e 7f1f d33c 222d b43b a12d d33d
00000180: 33c1 77be a861 99bd f5ff 0c3d 718a 613e
00000190: 1760 fabd 1725 753d d420 9f3e c62f 81bd
000001a0: 8af5 633e 6d2a 38be e72a 8a3d 3bdc 9bbc
000001b0: 3c41 13bd 6c5e cd3d 11a5 e4bd c422 df3d
000001c0: 6ea5 173d ba96 04be db83 13bd 6510 ddbd
000001d0: 9d79 ce3d 9035 e63c 12bf f73b 9896 bdbd
000001e0: 8ec4 21bd 08e7 cdbd f1c9 703d 973f a53e
000001f0: 4b51 ca3d f3ba e0bc 0b8b bdbd bf18 00bc
0.093568966 0.059580095 0.037080158 0.30243507 -0.11963878 0.14305004 -0.08740232 0.24764943
0.13756818 -0.26198328 0.15176068 0.020821018 0.07216306 0.14214936 0.25705627 0.036805294
-0.1535454 -0.10052615 -0.10620347 -0.04063141 -0.034574464 -0.14067933 0.07933737 0.3455882
-0.02500025 -0.047585305 -0.073686354 -0.06900857 0.17104492 0.06129587 0.14428717 0.062132288
0.1262441 0.15277928 0.018430308 -0.2035677 -0.11935754 0.22208954 -0.031172218 -0.21117608
0.1588332 0.24603334 -0.0954917 -0.13455196 -0.03044144 0.078012414 -0.06556014 -0.051903117
-0.22178315 0.13236754 0.25576127 0.21139736 -0.13409837 -0.13192618 0.1701562 0.08248942
0.006057601 -0.28869492 -0.11780917 0.053293485 0.108323134 0.043154784 0.09445158 0.055416167
-0.15763849 -0.16103794 -0.069810316 0.24954407 0.12919548 0.10522476 -0.115912646 0.29037425
-0.009660835 0.09050421 -0.16911516 -0.035096627 0.14131959 0.09995413 0.29374203 0.032792054
0.14407039 -0.1317797 0.06810133 -0.07341125 -0.0398658 0.0005410592 0.0796731 0.30457366
0.059480913 -0.014791525 0.111484565 -0.13959594 0.14545108 0.025771854 0.0054985443 0.103114374
-0.24194793 -0.074893296 0.034423787 0.22025467 -0.12225359 0.059849825 0.31079733 -0.0630794
0.22261634 -0.17984934 0.06746464 -0.019025913 -0.035950884 0.10027775 -0.111642964 0.10895303
0.037023 -0.12948123 -0.03601442 -0.10794143 0.1008179 0.028101712 0.007560619 -0.09257239
-0.03949409 -0.10053831 0.058786336 0.32275078 0.09878787 -0.027432894 -0.09255036 -0.0078184

encoder.block2.0.bias f4 [8]
00000000: 83bf 23be 52ee 2abe bfb3 0abe 369a a3bd
00000010: ae18 533c 3aa4 153e 5783 a33d 8d30 2b3e
-0.15991025 -0.16692474 -0.1354513 -0.07988398 0.012884302 0.14613429 0.079840355 0.1671774

encoder.block2.1.weight f4 [8]
00000000: 8e21 733f 932e 843f d6c8 873f af9d 7e3f
00000010: 945a 753f 7dd9 723f 4e38 803f 9a0f 893f
0.94973075 1.0326713 1.0608165 0.99459356 0.95841336 0.9486311 1.0017183 1.0707886

encoder.block2.1.bias f4 [8]
00000000: b85f c8bd 015a 98bb 4134 6f3d 17dd abbd
00000010: 8f4f c8bd b01a 99bd 3826 3dbd ad14 d43d
-0.09783882 -0.004649401 0.058399443 -0.08391779 -0.097807996 -0.07475793 -0.046179026 0.10355506

encoder.block2.1.running_mean f4 [8]
00000000: cac9 bd3e 3a05 28be 08d5 d6bd 32d8 123c
00000010: ae99 973e 714f db3e e584 6f3e 4f5d 813e
0.37068015 -0.16408244 -0.10489851 0.008962678 0.29609436 0.42834046 0.23390539 0.252665

encoder.block2.1.running_var f4 [8]
00000000: 1d43 053f 452f cd3d fb3d 1f3e 81cc 873e
00000010: 9f8b a13e e026 333e c5c7 383e dae6 d93d
0.5205553 0.100187816 0.15550987 0.26523212 0.31551835 0.17495298 0.18044956 0.106397346

decoder.block1.0.weight f4 [8, 6, 2, 2]
00000000: 487a c1bd 8f9e d83c f009 24be 8cc9 ac3d
00000010: dab3 dc3c 2163 463e e7b2 14be 6526 0c3e
00000020: 0b80 643e 5323 453e d65d 4c3d 9fdd fd3d
00000030: 12e6 8e3d 2d65 8f3d 9c6d 80bd cd62 17be
00000040: 7cda 853c b224 273d 29d6 08be d900 dabd
00000050: c9e1 08be e464 8fbd 78c3 fc3d 7ff0 323d
00000060: 911f fe3c 68df a53d b5c0 023e b23c 50be
00000070: bbbe 44be ce09 49bd 6ae2 f2bd 23ec ed3d
00000080: 58af 523e 6a8a ebbd 8d1f 23be 8cd3 34be
00000090: 2802 c63d ec06 303e 28c5 5fbe cce4 bdbd
000000a0: 0b4d e23d 3587 a4bd 575b 483e 5b15 b53d
000000b0: b0e7 b83c 62c5 413d de95 e83d d98f 32bd
000000c0: 779a 13be 6722 be3c 6ca4 3bbc 93a3 b63c
000000d0: fc82 f3bd c854 253d b16c 2cbe 3e96 06be
000000e0: 6e95 bc3d 0391 b8bd 47d0 973d fefc 81bd
000000f0: 53c5 0e3e 9407 08be cb25 bfbc d3d3 393d
00000100: 4e15 5ebe fdf0 2dbe 21f2 443d 1352 41bd
00000110: 2040 4a3e 64bf 5ebe 6faa 01be b85f d3bd
00000120: d719 c33d 592d 943c 3bf2 a2bc c68a 91bd
00000130: 41d6 41be 70a0 023d 58e8 1b3c 2238 0ebe
00000140: 716b e73d 865b bf3c c2b0 3cbe 78c0 883d
00000150: 2636 9c3d ba71 aabd 3979 4cbe fc18 463c
00000160: af1a 1a3e f8c9 3a3e 9e7e 09be 37c6 1fbd
00000170: 061d 3b3e 0fbb cb3d 3061 963d 63ba 02be
00000180: 5b7c 3b3e 4a46 18be 5a57 41bd d8b3 08bd
00000190: ef36 063d 36d1 23be 1f60 223e a78b 233e
000001a0: 9fe8 a6bd 9144 713d cf8a b5bd 75c6 233e
000001b0: 4242 913d d302 633d 48da 80bb dd96 eebc
000001c0: 7127 ff3d f24d 863c 798c b3bd 514c c33d
000001d0: c1bf 0e3e 60cd 82bd 8af0 2fbd e882 33be
000001e0: c276 27bc 0746 28bd d587 bfbd e2ff 46be
000001f0: ab16 f03d 129c 4ebe c0d9 0c3e b702 09be
00000200: fa14 1e3d 4328 2f3e aaa8 753d 786f b1bd
00000210: 1d69 13be af2e 9dbd cb5d eb3d f943 1cbd
00000220: 9503 023e 3e59 dfbc 8e53 03bc e085 e33d
00000230: 4234 d73c 9ace 18bc 0e67 ae3d 4268 ad3d
00000240: fe18 193d 44bf 033e bde7 4a3e 90c2 3e3d
00000250: 5cf7 94bd 56d6 873d 980a 7ebc 3b6c 2abe
00000260: 48f6 3ebb bfad 273e f908 323d f1fa 883d
00000270: 7ea4 17be 78df 053e d6ea fdbd 2ec1 8a3d
00000280: 9f3a 7bbd 8316 a8bd 500e e73d a38c ddbc
00000290: 1bea 40bd 751e 8fbd fdfa 183e 84d0 193e
000002a0: c6bd ba3d 6f82 3abe 783f ab3d b245 e03d
000002b0: 92d3 63be 9c75 97bd 3325 39bd c8cb 5fbe
000002c0: dfc6 58bd a2d5 233e ceb6 043d cc11 8bbd
000002d0: 9484 39be 28ee 63be 14e7 313e 09d7 df3d
000002e0: db8d dbbd 180b 733d c330 f0bd 23e6 64be
000002f0: a9d9 66be 4962 a83a 4fcb 18be 5bba c43d
-0.094471514 0.026442794 -0.16019416 0.084368795 0.026941229 0.19373752 -0.14521371 0.13686521
0.2231447 0.19251756 0.049894176 0.123957865 0.06977476 0.070017196 -0.06270906 -0.14783783
0.016339533 0.04080648 -0.13362946 -0.10644693 -0.1336738 -0.07001665 0.1234197 0.043686386
0.031020911 0.08099252 0.12768824 -0.20335653 -0.19213383 -0.049081616 -0.11859591 0.11617305
0.20574701 -0.1150101 -0.15930004 -0.17658824 0.0966838 0.1719014 -0.21852553 -0.09272155
0.11049851 -0.08033601 0.19566093 0.08841964 0.022571415 0.04730738 0.1135671 -0.043594215
-0.14414392 0.023209764 -0.011452775 0.022294795 -0.11890218 0.040364057 -0.16838337 -0.1314325
0.09208189 -0.09012034 0.074127726 -0.063470826 0.1394246 -0.13284141 -0.02333345 0.045368027
-0.21687815 -0.16986461 0.048082475 -0.047197413 0.19751024 -0.21752697 -0.12662672 -0.10320991
0.09526413 0.01808803 -0.019890895 -0.07106547 -0.18929388 0.031891286 0.009515844 -0.138886
0.1129979 0.023359071 -0.18426803 0.066773355 0.076275155 -0.08322473 -0.19968118 0.012090918
0.15049241 0.18241107 -0.13427207 -0.03900739 0.1827279 0.09947788 0.07342756 -0.12766413
0.18309157 -0.14870563 -0.047202446 -0.033374637 0.032767233 -0.15997776 0.1585698 0.15971242
-0.08149838 0.05890328 -0.08864366 0.15993674 0.07092716 0.055422615 -0.003932271 -0.029124672
0.12458695 0.01639459 -0.087670274 0.095360406 0.13940336 -0.063868284 -0.042954005 -0.17530406
-0.010221185 -0.04108241 -0.0935208 -0.19433549 0.117230736 -0.20176724 0.1375494 -0.13379942
0.038594224 0.17105202 0.059975304 -0.08663839 -0.14395566 -0.0767492 0.11492499 -0.03815076
0.12696679 -0.027264234 -0.008015526 0.11109519 0.026270036 -0.009326601 0.0851575 0.08467151
0.03737735 0.12865931 0.19814964 0.046572268 -0.072737426 0.06632678 -0.015505455 -0.16642849
-0.0029138494 0.16374873 0.04346559 0.06688488 -0.14808843 0.13073528 -0.12398307 0.06775127
-0.061335202 -0.08207419 0.11282027 -0.0270446 -0.04709826 -0.06988231 0.14939494 0.15020949
0.09118228 -0.18213819 0.08361715 0.10950793 -0.22248676 -0.07395479 -0.04520149 -0.2185508
-0.052924033 0.15999463 0.0324009 -0.06790504 -0.18116981 -0.22258818 0.17373306 0.109296866
-0.10720416 0.05933675 -0.117280506 -0.22353415 -0.22543968 0.0012846674 -0.14921306 0.09605857

decoder.block1.1.weight f4 [6]
00000000: 9899 703f 9847 7b3f ed37 7c3f 60d0 6f3f
00000010: ac00 7d3f d922 6d3f
0.93984365 0.9815612 0.98522836 0.9367733 0.9882915 0.926313

decoder.block1.1.bias f4 [6]
00000000: 4ff4 9dbd 8c1f fe3b 4352 6cbd d5e6 53bd
00000010: a5d9 4abc a15d debd
-0.07712614 0.0077552255 -0.05769564 -0.05173381 -0.012380992 -0.10857702

decoder.block1.1.running_mean f4 [6]
00000000: 6cd7 2f39 d936 90be 3002 293e daf6 d5bd
00000010: 905b 65bd c4f3 04bc
0.00016769551 -0.28166845 0.1650474 -0.10447474 -0.055995524 -0.008114759

decoder.block1.1.running_var f4 [6]
00000000: 2c65 093e 0de8 4e3e c758 803e 6cc6 4c3e
00000010: 001d 203e 12fd 383e
0.134175 0.20205708 0.25067732 0.19997567 0.15636063 0.18065289

decoder.block2.0.weight f4 [6, 2, 2, 2]
00000000: b10d de3e e723 8b3e 71dc cf3e ca19 9a3d
00000010: 56e6 1e3e 5910 9ebe 6fc1 32be 86bd a23d
00000020: 4f34 eebd dfa2 3a3e 020d 58bc 0ea6 ec3c
00000030: b42e 4d3e be0c 713e 9dc8 84bd 97b4 733d
00000040: 01c8 d33d 77d3 5d3e ccfb 793e cd99 ae3e
00000050: c5cb be3d 3a32 d9be 1876 fb3d f80b 26be
00000060: 5e29 5e3e d09a 0b3e 0cae 26be 8623 833c
00000070: 6bab 3dbd 311e 13bc f3f4 cbbe 1a46 a43b
00000080: 39cf 0e3e 8ce8 ba3d aa56 293e 7844 c13d
00000090: 0f55 e2be 64da d03d 2de5 babe c020 7fbe
000000a0: 9f62 173c 39df 5f3d 34bf 273e 1f73 903d
000000b0: e76d 8ebe 64dc 13be 657f 9c3c e85f 8abe
0.4336982 0.2717583 0.4059787 0.0752445 0.15517554 -0.30871847 -0.17456602 0.07946305
-0.11631071 0.18226193 -0.013186695 0.028887775 0.20037347 0.23540017 -0.064835764 0.059498396
0.10340882 0.21662699 0.24412459 0.34101716 0.0931621 -0.42421132 0.12278384 -0.16215503
0.21695468 0.13633275 -0.16277331 0.01600815 -0.046306055 -0.008979366 -0.3983532 0.0050132396
0.13946237 0.09126386 0.16536966 0.094368875 -0.4420552 0.10197905 -0.36502972 -0.24914837
0.009239822 0.05465624 0.16381532 0.070532076 -0.27818224 -0.14439541 0.019103715 -0.27026296

decoder.block2.1.weight f4 [2]
00000000: 55d1 993f b522 973f
1.2017008 1.1807467

decoder.block2.1.bias f4 [2]
00000000: bd8f 3ebe d5a5 3e3e
-0.1860952 0.18617947

decoder.block2.1.running_mean f4 [2]
00000000: 6b8d 953e aef9 79be
0.29209456 -0.24411651

decoder.block2.1.running_var f4 [2]
00000000: 5ee1 263e d293 673e
0.16296908 0.22614983

decoder.cb1.0.weight f4 [6, 10, 3, 3]
00000000: bf10 23bd 3a1a 293d 3bf5 1dbd d403 ffbc
00000010: 1db1 4f3d 16d3 90bd 87e1 0fbd c0c2 bb3d
00000020: 9a8b a4bc 48d1 0a3d cff9 703d ec2e 8f3a
00000030: 7643 123e d4d3 f43d 8a1d e23d 16f9 d13d
00000040: 85ee bc3c a781 bf3d 53ed eebc 5c6d bbbc
00000050: b45f eabc 52d0 a03c 1626 1a3c 0f64 363d
00000060: 6ead 4a3d 1d95 2e3d 41de 453d 6431 7abd
00000070: b82f 89bd 639f 60bd f491 733c e0c9 333d
00000080: aeb7 40bd c2db a33d 5013 4db9 3c02 543d
00000090: d188 ce3c 90c2 c0bb af86 92bc 6f5b 173d
000000a0: 2cfb babc 52fd 36bd 2873 763d bc7d 0abd
000000b0: 75b6 213d 541d 3f3d e838 1bbd 993a 7cbd
000000c0: 18b8 d63c 504f 58bd b23d e63c c039 60bd
000000d0: bea7 94bd e756 52bc 1a7d debc 576d acbd
000000e0: 29e2 8f3c 7e6f 493d dd64 433d c986 8f3d
000000f0: 058a aabc 8a25 c73d 8061 84bd 5dde cb3d
00000100: 679a 973d ff31 a8bd 5020 fa3c 2092 45bb
00000110: 7c04 cc3d 2c82 c23b 63cc 7c3d 4d60 9e3d
00000120: 3817 32be a7c2 9ebd 30a5 28be 4dc9 14be
00000130: 8706 28be 85a1 0fbe 21ec 25be 8bad 2dbe
00000140: 8de0 01be 0784 3bbd 1f82 fabc 2472 ab3c
00000150: 06d6 4b3c 1b73 66bd 4e43 88bd 91d4 a83d
00000160: f24e 86bd 060d 5cbd ed03 f8bd e888 4fbc
00000170: 5b1f 5c3d fc44 bd3c 208b e8bc cbf0 6c3c
00000180: 639b 43bd 80ec 2abc 3005 16bd a33d 8abd
00000190: 142b ee3a 5d2a 05bc 3631 97bd 7d28 18bd
000001a0: 52dc d0bd 43c9 28bd 2012 04bd 5103 173c
000001b0: fe46 fdbd 25c2 21be a299 17be 9fdd 0e3c
000001c0: 6c70 283d 6b74 8f3d bad9 f3bc 6dd8 b0bd
000001d0: 174b 1abd 73ee 23be 33c9 35bd 86e1 bcbd
000001e0: 4e21 69bc fbf4 213d 69de 43bd 4021 19be
000001f0: ce36 80bd 01c3 acbd e4ae f4bd 9f83 e1bd
00000200: a348 ffbd 2020 8e3d 79c4 e83b 8997 87bd
00000210: 6b45 153b 8910 50bd fe44 daba f59f 3d3d
00000220: 2de8 843d 7fcc 0ebd 824f 66bd 0220 05be
00000230: 3e7c 373d 5207 c839 1e34 e7bc 00b4 81bb
00000240: ffd6 723d 47da 9b3b 61ee e23c d315 4e3d
00000250: b93e 1ebd b15a f9bc 2cca d0bb 107e edbd
00000260: 11c4 683c d63e 3cbd 2566 39bd 94cf 99bc
00000270: 2e3d 553d 368f 37bc 7bd5 f2bd eb22 833d
00000280: d1b5 1a3d ff4b e43c f58c 643d eba3 7f3d
00000290: 2475 6d3c 1bf4 473d d022 83bc d30b 09bd
000002a0: 85cd 09bc 3621 81bc 69f2 d73d cf1f 513d
000002b0: 8d2a 463c 11c0 163d a1fa 12be 60bf 2e3d
000002c0: 8659 43bc abb0 c5bd dd85 cdbd 3aa2 5aba
000002d0: 174a 893d 3979 5f3c f9a7 5d3d fb10 c03c
000002e0: 93dc 02bd 0359 e43d 5fdf 733c e528 29bd
000002f0: e151 8cba 3f71 063c f962 56bd 497e 983c
00000300: db14 06bd 0b7e dfbc fb33 1fbb 0484 0ebd
00000310: 2fa8 50bb 0a9b 883a b20d 333d 04e7 c83b
00000320: 50c0 3b3d e068 0b3d b39f 8e3d b1d7 6a3d
00000330: 23ca 81bc c782 0cbd b9a5 363d 0951 593d
00000340: 27e2 f43d 3ae3 f13d 03ce 603d e471 9b3d
00000350: 8d7b 943d 3b9e ef3c f160 d0bc 411c 243c
00000360: 7327 2ebc e935 573d fd00 903c 28cd cabc
00000370: f909 693c 0c06 783d 2b1c 6e3d e936 6c3d
00000380: 26aa 333d a03f f5bc 0d7b b03b 2913 c6bc
00000390: 7067 d63c 4602 693d 0e6b c23b d9ac b03c
000003a0: 8f90 ad3d 6c19 a23d 4c0b b33c 5871 f33c
000003b0: f3ed 013c e4c1 a1bc 2922 cf3d ea53 da3d
000003c0: b482 52bc 75d8 c73d 574e f93a 600f d939
000003d0: 00be be3d 7fb1 a53d 1a9e b7bc 749e ce3d
000003e0: af37 933d 2592 343d 38da 9c3d 1959 51bc
000003f0: 83d8 7dbc e7eb 1b3c 3f40 47bb 6412 81bd
-0.039810892 0.041284777 -0.038563948 -0.031129755 0.050706018 -0.070715114 -0.03512719 0.09168005
-0.020086098 0.033890992 0.058831986 0.0010924018 0.14283547 0.119544655 0.110407904 0.102525875
0.023062954 0.09350901 -0.0291659 -0.022879295 -0.028610088 0.019630585 0.009408494 0.044529017
0.0494818 0.042622674 0.04830766 -0.06108226 -0.06698555 -0.054839503 0.014866341 0.043893695
-0.04705017 0.080009 -0.00019557518 0.051759943 0.025211724 -0.0058825687 -0.017886488 0.036952432
-0.022824846 -0.04467518 0.060168415 -0.033811316 0.039480645 0.04665883 -0.037896067 -0.06157932
0.02621083 -0.052810013 0.02810559 -0.054742575 -0.07258557 -0.012838102 -0.027159262 -0.084192924
0.017563896 0.049178593 0.047703613 0.0700813 -0.020817766 0.09723957 -0.06463909 0.09954522
0.07402497 -0.08212661 0.030532986 -0.0030146912 0.09961793 0.005935928 0.061718356 0.07733212
-0.1739167 -0.07751971 -0.16469264 -0.14529915 -0.1640874 -0.14026459 -0.16203357 -0.16960733
-0.12683316 -0.045780208 -0.030579625 0.02092845 0.012441164 -0.056262117 -0.06653462 0.08243669
-0.065580264 -0.053723358 -0.12110124 -0.012666918 0.05374084 0.023104183 -0.028386652 0.014461706
-0.04775561 -0.010432363 -0.03662604 -0.067500375 0.0018170797 -0.008127776 -0.07382433 -0.037147988
-0.10198273 -0.041207563 -0.032243848 0.009217099 -0.12367056 -0.15796717 -0.148047 0.008719831
0.04112284 0.07004627 -0.029766906 -0.0863503 -0.037669268 -0.1600893 -0.04438133 -0.09222703
-0.014229132 0.039540272 -0.04781953 -0.1495409 -0.06260453 -0.084356315 -0.1194742 -0.11011433
-0.12465026 0.06939721 0.0071034995 -0.066207 0.0022776972 -0.05079702 -0.0016652641 0.046295125
0.064895965 -0.03486299 -0.05622817 -0.13000491 0.04479622 0.00038152427 -0.028223094 -0.0039582253
0.059287068 0.0047562453 0.027701559 0.050313782 -0.038634036 -0.030438753 -0.006371757 -0.1159631
0.014206902 -0.045958363 -0.04526343 -0.018775739 0.0520603 -0.011203578 -0.118571244 0.064031444
0.03777105 0.027868269 0.05579849 0.062412184 0.0144932605 0.04881678 -0.01600781 -0.033458542
-0.008410816 -0.015762907 0.10544283 0.051055726 0.012095106 0.036804263 -0.1435342 0.04266298
-0.0119231995 -0.09652837 -0.10035298 -0.00083402137 0.06703585 0.013639742 0.05411527 0.023445597
-0.031948637 0.1114979 0.014884799 -0.041298766 -0.0010705554 0.008205711 -0.05234048 0.018614905
-0.032734733 -0.027281782 -0.0024292457 -0.03479387 -0.0031838526 0.0010422182 0.043714233 0.006131055
0.0458377 0.034035563 0.06964054 0.057334606 -0.015843457 -0.034304406 0.04459164 0.053055797
0.11957198 0.11810918 0.054883968 0.07590082 0.07250128 0.029250255 -0.02543685 0.010016502
-0.010629523 0.052541647 0.017578596 -0.02475603 0.014223569 0.06055264 0.05813233 0.057669554
0.043863438 -0.029937565 0.0053857625 -0.024179058 0.02617237 0.056886934 0.005933172 0.021566795
0.08474838 0.07915005 0.021855973 0.029717132 0.007930267 -0.019745775 0.101139374 0.106605366
-0.012848545 0.09758083 0.001902054 0.0004140092 0.093135834 0.08090495 -0.022414256 0.10088816
0.07188355 0.044084687 0.076588094 -0.01277759 -0.015493515 0.009516693 -0.0030403284 -0.06302336

decoder.cb1.1.weight f4 [6]
00000000: b8ac 773f 5bf8 5c3f f8fd 833f 28fe 683f
00000010: d8bc 873f 9459 8b3f
0.9674792 0.8631646 1.031188 0.9101281 1.0604506 1.0886712

decoder.cb1.1.bias f4 [6]
00000000: 3bd2 fbbd d3a0 2abe a81b 1f3d da72 52bd
00000010: aa14 8d3d eb92 813d
-0.12295958 -0.16662912 0.038844734 -0.051379062 0.06888707 0.063268505

decoder.cb1.1.running_mean f4 [6]
00000000: a1a6 edbe 18c5 19bf 7ed8 2a3f 2194 833f
00000010: 8138 243f 31ee cc3e
-0.4641619 -0.60066366 0.6673659 1.027958 0.6414872 0.40025476

decoder.cb1.1.running_var f4 [6]
00000000: ac57 063f a8e1 0e3f dbda 3b3f 10aa 633f
00000010: 6932 433f 2bcd 153f
0.52477527 0.55813074 0.7338082 0.8893137 0.76248795 0.58516186
